classifier.pth (torch, 1631 bytes, 4 tensors)

fc1.weight f4 [4, 4]
1.2934535 -4.970837 3.5421188 -0.5986455 1.2789557 -3.4705358 -6.060736 5.929162
-0.74899644 -4.568392 1.0658791 4.180381 0.72907555 4.1130514 -2.0773132 -3.266199
00000000: e28f a53f 1911 9fc0 13b2 6240 d540 19bf
00000010: d2b4 a33f 421d 5ec0 8df1 c1c0 b2bb bd40
00000020: 3bbe 3fbf 4430 92c0 ba6e 883f aec5 8540
00000030: b2a4 3a3f 1e9e 8340 b3f2 04c0 6809 51c0

fc1.bias f4 [4]
0.0775689 0.3127525 0.1270647 -0.017727634
00000000: 72dc 9e3d 1821 a03e 401d 023e 8b39 91bc

fc2.weight f4 [4, 4]
-0.6345444 6.9618287 0.077921174 1.4352969 -3.809859 -7.518039 -6.4290686 5.1414914
5.2935586 -2.5494902 4.083859 -3.683074 -4.5122333 6.072906 4.274301 -2.338927
00000000: 8071 22bf 4dc7 de40 2395 9f3d cfb7 b73f
00000010: bbd4 73c0 c793 f0c0 eeba cdc0 1987 a440
00000020: d564 a940 d92a 23c0 f9ae 8240 7cb7 6bc0
00000030: 3764 90c0 3f55 c240 13c7 8840 fbb0 15c0

fc2.bias f4 [4]
-0.34519362 0.20295297 0.10354377 -0.16790865
00000000: 38bd b0be e7d2 4f3e c20e d43d 3ff0 2bbe
